…
ng = EarlyStopping ( min_delta = 0.001 , # minimium amount of change to count as an improvement patience = 20 , # how many epochs to wait before stopping restore_best_weights = True , ) print ( model . summary ()) history = model . fit ( X_train_std , y_train_std , validation_data = ( X_val_std , y_val_std ), batch_size = 256 , epochs = 1000 , verbose = 1 , callbacks = [ early_stopping ], ) Model: \"sequential_1\" _________________________________________________________________ Layer (type) Output Shape Param # ================================================================= dense_5 (Dense) (None, 32) 448 _________________________________________________________________ dense_6 (Dense) (None, 1024) 33792 _________________________________________________________________ dense_7 (Dense) (None, 1024) 1049600 _________________________________________________________________ dense_8 (Dense) (None, 32) 32800 _________________________________________________________________ dense_9 (Dense) (None, 1) 33 ================================================================= Total params: 1,116,673 Trainable params: 1,116,673 Non-trainable params: 0 _________________________________________________________________ None Epoch 1/1000 15/15 [==============================] - 2s 50ms/step - loss: 0.4680 - val_loss: 0.1534 Epoch 2/1000 15/15 [==============================] - 1s 41ms/step - loss: 0.1286 - v
…
g = EarlyStopping ( min_delta = 0.001 , # minimium amount of change to count as an improvement patience = 20 , # how many epochs to wait before stopping restore_best_weights = True , ) print ( model . summary ()) history = model . fit ( X_train_std , y_train_std , validation_data = ( X_val_std , y_val_std ), batch_size = 256 , epochs = 1000 , verbose = 1 , callbacks = [ early_stopping ], ) Model: \"sequential_2\" _________________________________________________________________ Layer (type) Output Shape Param # ================================================================= dense_10 (Dense) (None, 512) 7168 _________________________________________________________________ dropout (Dropout) (None, 512) 0 _________________________________________________________________ dense_11 (Dense) (None, 1024) 525312 _________________________________________________________________ dropout_1 (Dropout) (None, 1024) 0 _________________________________________________________________ dense_12 (Dense) (None, 512) 524800 _________________________________________________________________ dense_13 (Dense) (None, 1) 513 ================================================================= Total params: 1,057,793 Trainable params: 1,057,793 Non-trainable params: 0 _________________________________________________________________ None Epoch 1/1000 15/15 [==============================] - 1s 51ms/step - loss: 0.6459 - val_loss: 0.1513 Epoch 2/1000 15/15 [==============================] - 1s 45ms/step - loss: 0.1613 - v
…
g = EarlyStopping ( min_delta = 0.001 , # minimium amount of change to count as an improvement patience = 20 , # how many epochs to wait before stopping restore_best_weights = True , ) print ( model . summary ()) history = model . fit ( X_train_std , y_train_std , validation_data = ( X_val_std , y_val_std ), batch_size = 256 , epochs = 1000 , verbose = 1 , callbacks = [ early_stopping ], ) Model: \"sequential_3\" _________________________________________________________________ Layer (type) Output Shape Param # ================================================================= dense_14 (Dense) (None, 512) 7168 _________________________________________________________________ batch_normalization (BatchNo (None, 512) 2048 _________________________________________________________________ dense_15 (Dense) (None, 1024) 525312 _________________________________________________________________ batch_normalization_1 (Batch (None, 1024) 4096 _________________________________________________________________ dense_16 (Dense) (None, 512) 524800 _________________________________________________________________ dense_17 (Dense) (None, 1) 513 ================================================================= Total params: 1,063,937 Trainable params: 1,060,865 Non-trainable params: 3,072 _________________________________________________________________ None Epoch 1/1000 15/15 [==============================] - 2s 54ms/step - loss: 2.7890 - val_loss: 2.5754 Epoch 2/1000 15/15 [==============================] - 1s 44ms/step - loss: 0.7404
…
ers . BatchNormalization (), layers . Activation ( 'relu' ), # separate activation layers . Dropout ( 0.3 ), layers . Dense ( 1024 , activation = 'relu' ), # built-in activation layers . Dropout ( 0.3 ), layers . BatchNormalization (), layers . Dense ( 512 , activation = 'relu' ), layers . Dropout ( 0.3 ), layers . BatchNormalization (), layers . Dense ( 1 ), ]) print ( model . summary ()) Model: \"sequential_4\" _________________________________________________________________ Layer (type) Output Shape Param # ================================================================= dense_18 (Dense) (None, 512) 7168 _________________________________________________________________ batch_normalization_2 (Batch (None, 512) 2048 _________________________________________________________________ activation (Activation) (None, 512) 0 _________________________________________________________________ dropout_2 (Dropout) (None, 512) 0 _________________________________________________________________ dense_19 (Dense) (None, 1024) 525312 _________________________________________________________________ dropout_3 (Dropout) (None, 1024) 0 _________________________________________________________________ batch_normalization_3 (Batch (None, 1024) 4096 _________________________________________________________________ dense_20 (Dense) (None, 512) 524800 _________________________________________________________________ dropout_4 (Dropout) (None, 512) 0 _________________________________________________________________ batch_normalization_4 (Batch (None, 512) 2048 _________________________________________________________________ dense_21 (Dense) (None, 1) 513 ================================================================= Total params: 1,065,985 Trainable params: 1,061,889 Non-trainable params: 4,096 _________________________________________________________________ None \ud83c\udfcb\ufe0f Exercise 2: Try Batch Normalization and Dropout \u00b6 Create 3 models and train for 100 epochs with early stopping: compile and train the model previously defined
…
